2024-11-27 19:45:48.714 | INFO     | solver_n_msg_deepsteg:__init__:18 - running multiple decoders solver!
2024-11-27 19:45:49.340 | DEBUG    | solver_n_msg_deepsteg:__init__:47 - DataParallel(
  (module): Encoder(
    (main): Sequential(
      (0): ReluBlock(
        (conv): Sequential(
          (0): Conv2d(1, 64, kernel_size=(3, 3), stride=(1, 1), padding=(1, 1))
          (1): BatchNorm2d(64, eps=1e-05, momentum=0.1, affine=True, track_running_stats=True)
          (2): ReLU()
        )
      )
      (1): ReluBlock(
        (conv): Sequential(
          (0): Conv2d(64, 64, kernel_size=(3, 3), stride=(1, 1), padding=(1, 1))
          (1): BatchNorm2d(64, eps=1e-05, momentum=0.1, affine=True, track_running_stats=True)
          (2): ReLU()
        )
      )
      (2): ReluBlock(
        (conv): Sequential(
          (0): Conv2d(64, 64, kernel_size=(3, 3), stride=(1, 1), padding=(1, 1))
          (1): BatchNorm2d(64, eps=1e-05, momentum=0.1, affine=True, track_running_stats=True)
          (2): ReLU()
        )
      )
    )
  )
)
2024-11-27 19:45:49.340 | DEBUG    | solver_n_msg_deepsteg:__init__:48 - DataParallel(
  (module): CarrierDecoder(
    (main): Sequential(
      (0): ReluBlock(
        (conv): Sequential(
          (0): Conv2d(66, 64, kernel_size=(3, 3), stride=(1, 1), padding=(1, 1))
          (1): BatchNorm2d(64, eps=1e-05, momentum=0.1, affine=True, track_running_stats=True)
          (2): ReLU()
        )
      )
      (1): ReluBlock(
        (conv): Sequential(
          (0): Conv2d(64, 64, kernel_size=(3, 3), stride=(1, 1), padding=(1, 1))
          (1): BatchNorm2d(64, eps=1e-05, momentum=0.1, affine=True, track_running_stats=True)
          (2): ReLU()
        )
      )
      (2): ReluBlock(
        (conv): Sequential(
          (0): Conv2d(64, 64, kernel_size=(3, 3), stride=(1, 1), padding=(1, 1))
          (1): BatchNorm2d(64, eps=1e-05, momentum=0.1, affine=True, track_running_stats=True)
          (2): ReLU()
        )
      )
      (3): ReluBlock(
        (conv): Sequential(
          (0): Conv2d(64, 1, kernel_size=(1, 1), stride=(1, 1))
          (1): BatchNorm2d(1, eps=1e-05, momentum=0.1, affine=True, track_running_stats=True)
          (2): ReLU()
        )
      )
    )
  )
)
2024-11-27 19:45:49.340 | DEBUG    | solver_n_msg_deepsteg:__init__:49 - [DataParallel(
  (module): MsgDecoder(
    (main): Sequential(
      (0): ReluBlock(
        (conv): Sequential(
          (0): Conv2d(1, 64, kernel_size=(3, 3), stride=(1, 1), padding=(1, 1))
          (1): BatchNorm2d(64, eps=1e-05, momentum=0.1, affine=True, track_running_stats=True)
          (2): ReLU()
        )
      )
      (1): ReluBlock(
        (conv): Sequential(
          (0): Conv2d(64, 64, kernel_size=(3, 3), stride=(1, 1), padding=(1, 1))
          (1): BatchNorm2d(64, eps=1e-05, momentum=0.1, affine=True, track_running_stats=True)
          (2): ReLU()
        )
      )
      (2): ReluBlock(
        (conv): Sequential(
          (0): Conv2d(64, 64, kernel_size=(3, 3), stride=(1, 1), padding=(1, 1))
          (1): BatchNorm2d(64, eps=1e-05, momentum=0.1, affine=True, track_running_stats=True)
          (2): ReLU()
        )
      )
      (3): ReluBlock(
        (conv): Sequential(
          (0): Conv2d(64, 64, kernel_size=(3, 3), stride=(1, 1), padding=(1, 1))
          (1): BatchNorm2d(64, eps=1e-05, momentum=0.1, affine=True, track_running_stats=True)
          (2): ReLU()
        )
      )
      (4): ReluBlock(
        (conv): Sequential(
          (0): Conv2d(64, 64, kernel_size=(3, 3), stride=(1, 1), padding=(1, 1))
          (1): BatchNorm2d(64, eps=1e-05, momentum=0.1, affine=True, track_running_stats=True)
          (2): ReLU()
        )
      )
      (5): ReluBlock(
        (conv): Sequential(
          (0): Conv2d(64, 1, kernel_size=(3, 3), stride=(1, 1), padding=(1, 1))
          (1): BatchNorm2d(1, eps=1e-05, momentum=0.1, affine=True, track_running_stats=True)
          (2): ReLU()
        )
      )
    )
  )
)]
2024-11-27 19:45:49.340 | DEBUG    | solver:eval_mode:173 - eval mode
2024-11-27 19:45:49.341 | INFO     | solver:train:191 - start training...
2024-11-27 19:45:49.341 | DEBUG    | solver:train_mode:169 - train mode
2024-11-27 19:49:54.680 | DEBUG    | solver:eval_mode:173 - eval mode
…
